accuracy : 0.173846
=================================================================
Model: "model_1"
_________________________________________________________________
Layer (type)                 Output Shape              Param #   
=================================================================
input_1 (InputLayer)         (None, 79, 7)             0         
_________________________________________________________________
time_distributed_1 (TimeDist (None, 79, 10)            80        
_________________________________________________________________
cu_dnnlstm_1 (CuDNNLSTM)     (None, 79, 60)            17280     
_________________________________________________________________
batch_normalization_1 (Batch (None, 79, 60)            240       
_________________________________________________________________
cu_dnnlstm_2 (CuDNNLSTM)     (None, 60)                29280     
_________________________________________________________________
batch_normalization_2 (Batch (None, 60)                240       
_________________________________________________________________
dense_2 (Dense)              (None, 1)                 61        
=================================================================
Total params: 47,181
Trainable params: 46,941
Non-trainable params: 240
_________________________________________________________________
