accuracy : 0.020217
=================================================================
Model: "model_1"
_________________________________________________________________
Layer (type)                 Output Shape              Param #   
=================================================================
input_1 (InputLayer)         (None, 336, 5)            0         
_________________________________________________________________
time_distributed_1 (TimeDist (None, 336, 10)           60        
_________________________________________________________________
cu_dnnlstm_1 (CuDNNLSTM)     (None, 336, 60)           17280     
_________________________________________________________________
batch_normalization_1 (Batch (None, 336, 60)           240       
_________________________________________________________________
cu_dnnlstm_2 (CuDNNLSTM)     (None, 60)                29280     
_________________________________________________________________
batch_normalization_2 (Batch (None, 60)                240       
_________________________________________________________________
dense_2 (Dense)              (None, 1)                 61        
=================================================================
Total params: 47,161
Trainable params: 46,921
Non-trainable params: 240
_________________________________________________________________
